nets/MNIST_MLP(20, 10)_trained.pt (torch_old, 64630 bytes, 3 tensors)

fc1.weight f4 [20, 784]
0	0xbc52d7f6	-0.012868872
1	0xbd2744fe	-0.04083728
2	0x3c09321c	0.008373763
3	0x3bd91990	0.0066253617
4	0xbd249951	-0.040185276
5	0xbbac4783	-0.0052575483
6	0xbd063357	-0.032763805
7	0xbceabfd2	-0.02865592
8	0xbcf640fa	-0.03006028
9	0x3c12a592	0.008950608
10	0xbc84588e	-0.016155507
11	0x3bb73d77	0.005592044
12	0x3ca765a7	0.020434214
13	0x3cd5e23b	0.026108852
14	0x3b2805aa	0.0025638142
15	0x3c6dc3fe	0.01451206
16	0x3ce743ee	0.028230634
17	0x3ba1db42	0.0049394676
18	0x3c274ef5	0.010211696
19	0xbcce210b	-0.02516224
20	0x3bb7ee79	0.005613145
21	0xbd14aa3b	-0.036295157
22	0xbbed8afb	-0.007249234
23	0x3c1fcc56	0.009753307
24	0xbb2b37bc	-0.002612575
25	0x3c1cf1f9	0.009579175
26	0x3c8bd57e	0.017069574
27	0x3c01a428	0.007912673
28	0x3cef06c7	0.029178036
29	0x3c421aa4	0.011847172
30	0xbd1acc73	-0.037792634
31	0xbd29828d	-0.04138427
32	0xbc60c89b	-0.013719703
33	0x3bc8d83f	0.006129294
34	0x3b884064	0.0041580666
35	0x3cdc6bcf	0.026906876
36	0xbcaa4167	-0.02078314
37	0x3ca0aaab	0.01961263
38	0x3c74ad9e	0.014933972
39	0xbca70db0	-0.020392269
40	0x3cde7295	0.027154246
41	0x3cea9b74	0.028638579
42	0x3c0bac1e	0.008524923
43	0xbbe6954c	-0.0070368405
44	0xbbce3b6f	-0.006293706
45	0xbcb6aa70	-0.022298068
46	0xbd0c34b4	-0.03422995
47	0xbc80829d	-0.015687281
48	0x3ca1ea45	0.019765029
49	0xbc5a6bbb	-0.013331349
50	0xb99cbf53	-0.00029897186
51	0xbce7603d	-0.028244132
52	0x3cecf782	0.028926615
53	0x3bdf04df	0.0068060006
54	0x3b4e4dde	0.0031479518
55	0x3cc05cd7	0.02348177
56	0xbc31e0b1	-0.010856793
57	0x3cc36245	0.02385057
58	0xbd0f3dc4	-0.034971014
59	0x3cdaefab	0.02672561
60	0xbcf60f85	-0.030036697
61	0x3cb27159	0.021782564
62	0xbd05b8a7	-0.0326468
63	0xbcee496c	-0.029087745
64	0x3ae2b917	0.0017297593
65	0xbc63b36b	-0.013897757
66	0x3cf86214	0.030320205
67	0x3b5010a0	0.003174819
68	0xbc0cdc7a	-0.008597488
69	0xbd274eef	-0.04084676
70	0xbcc57411	-0.024103196
71	0xbd11b2e6	-0.035571
72	0xbbe9aefa	-0.0071314545
73	0x3b960274	0.004577929
74	0xbc81f479	-0.015863644
75	0x3bed3dcf	0.007240034
76	0xbc3cfe6e	-0.01153527
77	0xbcee16d7	-0.029063625
78	0xbb2c1502	-0.0026257639
79	0xbce9a135	-0.028519252
80	0xbcbb4b6a	-0.022863109
81	0xbc31afb9	-0.010845118
82	0xbc41598b	-0.011801134
83	0xbc0ee96a	-0.008722642
84	0xbc856cf3	-0.016287303
85	0x39b0e9ff	0.00033743677
86	0x3a40803d	0.0007343328
87	0x3b98d1d0	0.0046636835
88	0x3c94d5a9	0.018168287
89	0xbba5ae10	-0.0050561503
90	0x3b9fc851	0.0048761745
91	0x3bd23d03	0.0064159646
92	0xbd24cd49	-0.040234838
93	0x3cc1924c	0.02362933
94	0xb9f2b0a9	-0.0004628946
95	0x3c9bb093	0.019005096
96	0x3a896d4d	0.0010484845
97	0xbda4979c	-0.0803673
98	0xbda7db70	-0.08196151
99	0xbd8ed156	-0.069735214
100	0xbd6786ca	-0.05652503
101	0x3c2fe097	0.010734699
102	0x3bf93451	0.0076051136
103	0xbc3c8973	-0.01150738
104	0x3cf49f98	0.029861256
105	0xbccbeaef	-0.024892299
106	0x3cf50f41	0.0299145
107	0x3a277304	0.0006387683
108	0x3c61e3cd	0.013787222
109	0xbc57aa2e	-0.013163133
110	0xbbb31cad	-0.005466065
111	0xbce64305	-0.02810813
112	0xbd17201a	-0.03689585
113	0xbbbae4be	-0.0057035377
114	0x3b3bd040	0.0028658062
115	0xbc6c0f8f	-0.014408006
116	0xbd204f83	-0.03913833
117	0xbd154bff	-0.03644943
118	0xbd269714	-0.040671423
119	0xbd54388c	-0.05181174
120	0xbd082379	-0.033236954
121	0xbd09785d	-0.033562053
122	0xbb869ebe	-0.004108279
123	0xbcd23b00	-0.025662899
124	0xbd2bbf62	-0.041930564
125	0x3c6df134	0.014522839
126	0xbc8ecf2f	-0.017432777
127	0xbd1b7ea5	-0.037962575
128	0xbca39120	-0.019966662
129	0x3d040503	0.032231342
130	0x3d08c8c0	0.033394575
131	0xbcd38ec6	-0.025824916
132	0xbd2f8d69	-0.04285947
133	0x3bf4ba9b	0.007468534
134	0xbca80a2d	-0.020512665
135	0x3c877aa3	0.01653797
136	0x3be2c901	0.006920934
137	0xbbd8f018	-0.0066204183
138	0x3ceb91c0	0.028756022
139	0x3cddbc5f	0.027067361
140	0xbd08f618	-0.03343782
141	0x3bba2fa3	0.0056819483
142	0x3c21a506	0.009866005
143	0xbd34c56a	-0.04413358
144	0xbcf4f635	-0.029902557
145	0xbd5b0eac	-0.05348079
146	0xbda3f070	-0.08004844
147	0xbcadfb10	-0.02123788
148	0xbc2373b4	-0.009976316
149	0xbcb11ce9	-0.02162023
150	0xbc34e52b	-0.011040966
151	0xbd1f53a6	-0.038898133
152	0x3b21e311	0.0024701993
153	0x3d44a4a5	0.04800858
154	0x3cf263a5	0.02958853
155	0xbd8f4ac3	-0.069966815
156	0xbc91f6aa	-0.017817814
157	0x3c3d91fb	0.011570449
158	0x3d345261	0.044023875
159	0xbd08e51d	-0.033421624
160	0xbcaad635	-0.020854095
161	0xbcb71fdf	-0.022354065
162	0xbc9697aa	-0.018382866
163	0x3cbb3332	0.02285156
164	0xbbf35782	-0.007426203
165	0x3d531321	0.051531915
166	0x3cc383ba	0.023866523
167	0x3c2acce7	0.010424829
168	0xbcd4f2e3	-0.025994724
169	0x3c920e96	0.01782922
170	0x3ce7f6ce	0.028315928
171	0x3cb14821	0.021640839
172	0x3c4fd4eb	0.012685041
173	0xbba49eb3	-0.0050238012
174	0xbc5f3186	-0.013622647
175	0x3d26f096	0.040756784
176	0x3d9e5e39	0.07732815
177	0x3cd153ba	0.02555262
178	0x3d81e161	0.06341816
179	0x3d7995c3	0.06093384
180	0x3db9a44d	0.09064541
181	0x3c93f789	0.01806237
182	0x3d5ca745	0.05387046
183	0xbd37c2cf	-0.04486352
184	0x3c3bf3e7	0.011471725
185	0x3d09edba	0.03367398
186	0x3c0b1748	0.008489437
187	0xbd0ac908	-0.033883125
188	0x3af7ded8	0.0018911017
189	0x3c00e4b1	0.007867024
190	0xbb9e84fd	-0.004837631
191	0xbd345e36	-0.04403516
192	0x3aa0bb08	0.0012262771
193	0x3d21858e	0.03943401
194	0x3cdfc737	0.027316673
195	0x3c1e303d	0.009655056
196	0x3c153cf3	0.00910877
197	0x3c636c51	0.013880805
198	0xbcf0e3fd	-0.029405588
199	0x3c34cd76	0.011035314
200	0x3b86bb9b	0.00411172
201	0xbc9339bf	-0.017971871
202	0x3d68d91e	0.056847684
203	0x3d53fffa	0.05175779
204	0x3d44385b	0.047905307
205	0x3db9298b	0.09041127
206	0x3dbba90b	0.09163102
207	0x3dabe838	0.083939016
208	0x3dcb7714	0.09934822
209	0x3db7e956	0.08980052
210	0x3d82df60	0.06390262
211	0xbcd97ecf	-0.026549725
212	0x3d44ceda	0.04804883
213	0x3d1a24e3	0.037632834
214	0x3d89140c	0.06693277
215	0x3d532bc8	0.051555425
216	0x3cf37a77	0.029721482
217	0x3d2bc72e	0.041938
218	0x3d2b8061	0.04187048
219	0xbd1a74f0	-0.037709177
220	0xbc55a943	-0.013040843
221	0x3d1cbca7	0.03826585
222	0xbb254495	-0.002521788
223	0xbcff9f71	-0.031203957
224	0xbcbbc803	-0.022922521
225	0xbcb327f2	-0.021869633
226	0xbcbb3710	-0.022853404
227	0x3cbbf178	0.02294229
228	0xbb24bf39	-0.0025138392
229	0x3d162392	0.036655016
230	0x3bdc61b9	0.0067255166
231	0x3d824d19	0.063623615
232	0x3ddfcee5	0.10928134
233	0x3d93efe1	0.07223488
234	0x3d8e3401	0.06943513
235	0x3dd757b0	0.10514772
236	0x3e091415	0.13386567
237	0x3d8cf7ce	0.068832025
238	0x3e0f01a0	0.13965464
239	0x3d55166c	0.052023336
240	0x3dbea1c4	0.09308198
241	0x3d7ab7a8	0.061210304
242	0x3d5f7e22	0.05456365
243	0x3db7901d	0.08963034
244	0x3d94a45e	0.07257913
245	0x3d924d45	0.07143644
246	0x3d220b47	0.039561536
247	0x3d9818f5	0.07426635
248	0xbb603983	-0.0034213967
249	0x3d3d8b57	0.046275463
250	0xbd1cb325	-0.038256783
251	0xbcbd45a4	-0.023104496
252	0x3c3740a6	0.011184847
253	0x3cf15186	0.029457819
254	0x3d211c06	0.039333366
255	0x3cb883cc	0.022523783

fc2.weight f4 [10, 20]
0	0x3f373e43	0.7157938
1	0x3f1348e8	0.5753312
2	0xbf21080b	-0.629029
3	0x3ea788a4	0.32721436
4	0x3e0c2667	0.13686524
5	0xbdc57779	-0.09641928
6	0x3d70bb65	0.058772463
7	0xbe97c626	-0.29643363
8	0x3ef0e024	0.47046006
9	0xbe4f2431	-0.2022865
10	0x3e63d6a1	0.22249843
11	0x3edab395	0.42715135
12	0x3e433a6e	0.19065258
13	0xbea88133	-0.3291107
14	0x3ee8c8aa	0.45465595
15	0x3c10ffdd	0.008850065
16	0xbe4077a8	-0.18795645
17	0x3e5dab98	0.21647489
18	0xbd5d247b	-0.05398987
19	0xbf4cea4d	-0.80045015
20	0x3e71b65e	0.23604724
21	0xbf025867	-0.5091614
22	0xbe204d83	-0.15654568
23	0xbdf071d6	-0.117404625
24	0xbe932ac8	-0.28743577
25	0x3e204b34	0.15653688
26	0x3f5ca7eb	0.8619372
27	0x3d19bd39	0.037533972
28	0xbe956e0a	-0.29185516
29	0xbf43f806	-0.7655033
30	0x3e1ac952	0.1511586
31	0xbe4ba015	-0.19885285
32	0xbcad24cc	-0.02113571
33	0x3eed7eb0	0.46385717
34	0xbe3d2511	-0.18471171
35	0x3f7cd77f	0.9876632
36	0xbe942c5c	-0.28940094
37	0x3d7f8661	0.062384013
38	0x3dca0f7e	0.09866236
39	0xbdc72d17	-0.09725397
40	0xbd5d5b15	-0.05404194
41	0xbedc4290	-0.43019533
42	0xbb75bd77	-0.0037496963
43	0x3e6d34e2	0.23164704
44	0xbea22bb9	-0.31673983
45	0xbe02e9a4	-0.1278444
46	0xbf429a1d	-0.7601641
47	0x3f34db75	0.70647365
48	0xbdd83250	-0.10556471
49	0xbf089f33	-0.5336792
50	0x3e5add52	0.2137349
51	0x3db18597	0.08668058
52	0xbe272acb	-0.16324918
53	0x3e773570	0.24141479
54	0x3ed1fa02	0.41011053
55	0x3edcef2e	0.4315123
56	0x3e12ef8b	0.14349191
57	0x3e23b03f	0.15985201
58	0x3e8b274c	0.2717842
59	0x3e976a66	0.29573363
60	0x3e0fe965	0.14053877
61	0x3e02d62d	0.12777014
62	0x3efdf056	0.49597424
63	0xbf179476	-0.5921091
64	0x3f03d588	0.514977
65	0x3e01ae39	0.12664117
66	0xbe3bfa70	-0.18357253
67	0xbeda3e4a	-0.42625648
68	0xbd3fa91c	-0.046792135
69	0x3d156aaa	0.036478676
70	0xbda48db7	-0.080348425
71	0x3dd1ae6a	0.10238345
72	0xbd1b8887	-0.037972
73	0xbeef10f7	-0.4669263
74	0x3edffe7c	0.43748844
75	0x3e123ea5	0.1428171
76	0xbedfacf2	-0.43686634
77	0x3db6fd8e	0.089350805
78	0x3f1121b1	0.56692034
79	0x3ec1e904	0.3787309
80	0xbf006d4f	-0.5016679
81	0xbebc5663	-0.36784658
82	0x3ed77326	0.4208004
83	0x3eb8f3b8	0.36123443
84	0xbe79c6a1	-0.24392177
85	0xbe4abd89	-0.19798864
86	0x3e8a246f	0.26980922
87	0xbef3b636	-0.47599953
88	0x3e984b96	0.29745167
89	0x3e7d31ff	0.24726103
90	0xbe4218f2	-0.18954828
91	0xbdf3fd3d	-0.11913536
92	0x3e128fca	0.14312664
93	0xbe830e1c	-0.25596702
94	0xbdac703e	-0.08419846
95	0x3eb40435	0.3515946
96	0xbf2c07f5	-0.6719964
97	0x3d39c414	0.04535301
98	0xbd80075b	-0.06251403
99	0xbdc9a4b3	-0.09845867
100	0xbea6da21	-0.32588294
101	0xbe5ef492	-0.21772984
102	0xbece3915	-0.40277925
103	0x3ec1dfa7	0.37865946
104	0x3e1ec0f4	0.15503293
105	0x3dda4e83	0.10659506
106	0x3ee9cb3b	0.45662865
107	0x3e4f89e0	0.20267439
108	0xbee04720	-0.43804264
109	0x3ea51b43	0.32247362
110	0xbd4be28e	-0.049776606
111	0x3f32f71d	0.69908315
112	0x3e58b99b	0.21164553
113	0xbe9794fe	-0.2960586
114	0xbe92b22f	-0.28651568
115	0x3e2e3ebf	0.17016123
116	0x3e03918e	0.12848493
117	0x3e64422d	0.22290869
118	0x3ee6a045	0.4504415
119	0x3c76d794	0.015066046
120	0xbe26c8b2	-0.16287497
121	0x3e7f7b6a	0.24949422
122	0x3f0343aa	0.5127512
123	0x3ed52234	0.41627657
124	0x3e77e2cc	0.2420761
125	0xbc1449e2	-0.009050818
126	0xbdad3a41	-0.08458377
127	0x3f48f819	0.78503567
128	0xbe7856f5	-0.24251921
129	0x3efb25e2	0.4905234
130	0x3e1b84b9	0.15187348
131	0xbbcacaea	-0.00618874
132	0x3e3ec785	0.18630798
133	0xbe9d474e	-0.30718464
134	0x3ee8f0f8	0.45496345
135	0x3e9afb71	0.3026996
136	0xbdf4dbfa	-0.1195602
137	0xbcb60306	-0.022218239
138	0xbf127911	-0.5721598
139	0xbf330225	-0.6992515
140	0x3f5c58cd	0.86073
141	0x3f8a1ba9	1.0789691
142	0xbdc8a5ba	-0.09797235
143	0x3e4fcdf8	0.20293415
144	0x3efbaacd	0.49153748
145	0xbe61d2ac	-0.22053021
146	0xbd9f7d65	-0.07787589
147	0xbeb00ca7	-0.34384653
148	0x3f1bc325	0.6084464
149	0x3ea9fe2e	0.33201736
150	0xbe223ea6	-0.15844211
151	0xbeb92c9a	-0.3616684
152	0xbe45bdef	-0.19310735
153	0x3f1050a0	0.56373024
154	0xbf126930	-0.57191753
155	0x3ed9476b	0.424373
156	0x3e79def4	0.24401456
157	0x3cc52da2	0.024069611
158	0x3d6e7883	0.058220398
159	0xbe99552c	-0.29947793
160	0x3db27654	0.087139755
161	0x3de01c5b	0.109429084
162	0x3f22084f	0.6329393
163	0xbeab4ce1	-0.3345709
164	0xbf10b277	-0.56522316
165	0x3bd9ece7	0.0066505554
166	0xbcc12377	-0.023576481
167	0xbe3324eb	-0.17494552
168	0x3f4936c9	0.7859922
169	0xbeb3579a	-0.35027772
170	0xbe0eb292	-0.13935307
171	0x3f2fa95b	0.6861779
172	0x3dd0c3af	0.10193574
173	0x3ea58f1e	0.32335752
174	0xbed15c47	-0.40890715
175	0xbd69e00b	-0.05709843
176	0x3e5bf127	0.21478711
177	0x3e1c22e3	0.15247683
178	0xbdfd6b12	-0.12373938
179	0x3f330486	0.6992878
180	0xbe188191	-0.14893176
181	0xbd392a90	-0.045206606
182	0xbd451e4c	-0.048124596
183	0xbe339de2	-0.17540696
184	0xbe40d2ed	-0.18830462
185	0x3cd04ec0	0.025428176
186	0xbe26258c	-0.1622526
187	0x3d6d4fc0	0.057937384
188	0xbe0405e0	-0.12892866
189	0x3dc85a44	0.09782842
190	0x3ddbf40c	0.107399076
191	0x3e449e80	0.19201088
192	0x3d712950	0.05887729
193	0xbe3c5d18	-0.18394887
194	0xbda82ee4	-0.08212069
195	0xbd2eefc3	-0.042709123
196	0xbde18edf	-0.110135786
197	0x3e21ef40	0.15813923
198	0xbdce5fbd	-0.100768544
199	0x3e137fa1	0.14404155

fc3.weight f4 [10, 10]
0	0xbe97b585	-0.29630676
1	0x3f01c11c	0.50685287
2	0x3eaad71f	0.3336725
3	0x3f3751d2	0.7160922
4	0x3e9eefdd	0.31042376
5	0xbf394cec	-0.72383
6	0xbed038e2	-0.40668398
7	0x3ed3b59c	0.41349494
8	0xbdead943	-0.11467221
9	0x3e75a8a8	0.23990119
10	0x3da4a87c	0.08039948
11	0xbe8ac9ad	-0.2710699
12	0x3d5d4546	0.054021142
13	0x3da5e4db	0.08100291
14	0xbef4b821	-0.4779673
15	0x3f6c4ad3	0.9230167
16	0xbea3ebe8	-0.3201592
17	0x3e814907	0.25251028
18	0xbf41d654	-0.75717664
19	0xbdb3abda	-0.087730125
20	0x3f7d3e85	0.9892352
21	0x3e1f1529	0.15535416
22	0xbf802ea4	-1.0014234
23	0xbcda5299	-0.026650714
24	0x3dd9159e	0.10599826
25	0xbe6e6a67	-0.23282777
26	0x3f160ec7	0.586163
27	0x3f548475	0.83014613
28	0x3d932c2e	0.07186161
29	0xbe47f9c1	-0.19528867
30	0xbe96f432	-0.2948318
31	0xbe5641db	-0.2092356
32	0x3e5eae0c	0.21746081
33	0xbf1f4e49	-0.6222883
34	0xbd45562a	-0.048177876
35	0xbdf0fcb9	-0.11766953
36	0x3f2f4c09	0.68475395
37	0x3f7bfbf2	0.98431313
38	0xbe2d00f6	-0.16894898
39	0x3e99f15f	0.30066964
40	0x3e9c7773	0.30559883
41	0x3d930439	0.0717854
42	0x3e04d6da	0.12972584
43	0xbec5430a	-0.3852771
44	0x3f288d31	0.6584044
45	0x3e395ff3	0.18103008
46	0xbe80faa4	-0.25191224
47	0xbf34f8bd	-0.70692044
48	0x3f409d79	0.75240284
49	0x3d7fa4a9	0.06241289
50	0x3e56c76e	0.20974514
51	0x3f98e3ab	1.1944479
52	0x3f55c125	0.8349784
53	0xbf0c026f	-0.54691213
54	0xbf35bde2	-0.70992863
55	0xbee0ee05	-0.43931594
56	0xbe9c70ea	-0.30554897
57	0x3d019c9f	0.031643506
58	0x3e3eab1b	0.18619959
59	0x3df9db20	0.12199998
60	0xbec93a5d	-0.3930234
61	0x3f39e30f	0.7261209
62	0xbf33c05c	-0.7021539
63	0x3e8bf6ca	0.27336723
64	0x3e2fa633	0.17153244
65	0x3ef3fa6b	0.4765199
66	0xbf7202a0	-0.94535255
67	0x3e6377d7	0.22213684
68	0x3ec19851	0.3781152
69	0xbd8ba09d	-0.06817744
70	0x3f459847	0.7718548
71	0xbf6db134	-0.92848516
72	0x3e1a8e91	0.15093447
73	0x3f2c5e82	0.6733171
74	0xbf02f3af	-0.5115308
75	0xbea1bf21	-0.31591132
76	0x3dd73151	0.10507453
77	0x3ee7524a	0.4517997
78	0x3f3a35c0	0.72738266
79	0x3c6ea93e	0.014566718
80	0x3da062e3	0.07831361
81	0x3e8168e3	0.25275335
82	0x3de51b5e	0.111868605
83	0x3da12ebe	0.078702435
84	0x3ec48e60	0.38389874
85	0x3e6cb1d3	0.2311471
86	0x3f349c1c	0.70550704
87	0xbf62ba33	-0.8856537
88	0xbf8135c0	-1.0094528
89	0x3e0df78e	0.13863966
90	0xbf7104e8	-0.9414811
91	0xbec2ea5c	-0.38069427
92	0x3e6eb137	0.2330979
93	0x3f0bdd7b	0.5463483
94	0xbde77a60	-0.11302638
95	0x3e6ee625	0.2332998
96	0x3f02280e	0.5084237
97	0xbf560ef7	-0.83616585
98	0x3e623e1e	0.22094008
99	0xbd6ef5d0	-0.058339894
