nets/MNIST_MLP(20, 10)_untrained.pt (torch_old, 64630 bytes, 3 tensors)

fc1.weight f4 [20, 784]
0	0xbbdc8f94	-0.006730983
1	0xbd0e20fd	-0.03469943
2	0x3c6dc258	0.014511667
3	0x3c511d38	0.012763314
4	0xbd0b7550	-0.034047425
5	0x3a66cac0	0.0008804016
6	0xbcda1eae	-0.026625957
7	0xbcb87798	-0.022517964
8	0xbcc3f8b0	-0.023922294
9	0x3c7735f0	0.015088543
10	0xbc2420bc	-0.01001757
11	0x3c402f30	0.01173
12	0x3cd9bb78	0.02657865
13	0x3d03fdaf	0.032224353
14	0x3c0de734	0.00866108
15	0x3ca9268e	0.020648267
16	0x3d0cc611	0.03436858
17	0x3c357e18	0.011077426
18	0x3c85efa4	0.016349621
19	0xbc9bd8d5	-0.019024292
20	0x3c4087b0	0.0117511
21	0xbcf70c7e	-0.030157324
22	0xba91a8e0	-0.0011112951
23	0x3c822e58	0.015891239
24	0x3b670a00	0.0035253763
25	0x3c80c128	0.015717104
26	0x3cbe1db0	0.023207515
27	0x3c66347c	0.014050599
28	0x3d10a77d	0.03531598
29	0x3c93556e	0.017985072
30	0xbd01a872	-0.031654783
31	0xbd105e8c	-0.035246417
32	0xbbf87140	-0.00758186
33	0x3c48fe60	0.012267679
34	0x3c2a1d48	0.010382958
35	0x3d080983	0.033212196
36	0xbc73602e	-0.014854474
37	0x3cd26ffc	0.025688164
38	0x3cae5dce	0.021284964
39	0xbc635b98	-0.013876818
40	0x3d0bb1a1	0.034104947
41	0x3d0ff82f	0.035148796
42	0x3c787630	0.015164897
43	0xba600f80	-0.00085472316
44	0xbb46a160	-0.003030859
45	0xbc8e2d7a	-0.01735567
46	0xbce3c7d3	-0.027805245
47	0xbc1564bc	-0.009118255
48	0x3cd61bb0	0.02613625
49	0xbbe97fd4	-0.007125834
50	0x3bc0adf0	0.00588011
51	0xbcb4ff38	-0.022094354
52	0x3d0f9fdb	0.03506456
53	0x3c5412e0	0.012943953
54	0x3c1823dc	0.009285893
55	0x3cf2a522	0.029619757
56	0xbb9aa130	-0.004718922
57	0x3cf5aa86	0.029988538
58	0xbcec347e	-0.028833624
59	0x3d069093	0.03285272
60	0xbcc3b7c5	-0.02389134
61	0x3ce4dbe6	0.027936887
62	0xbcd546f0	-0.026034802
63	0xbcb69c08	-0.022291198
64	0x3bba42d8	0.005684238
65	0xbc7dc558	-0.015488945
66	0x3d0c5e19	0.034269426
67	0x3c53e2a0	0.01293245
68	0x3ba09a18	0.004901182
69	0xbc76afd4	-0.015056569
70	0x3c2410c8	0.010013767
71	0x3b9c5528	0.0047708936
72	0x3c959562	0.018259708
73	0x3cb072b0	0.021539062
74	0xbb305100	-0.0026903749
75	0x3ca5dfb8	0.020248279
76	0xbab95ee0	-0.0014142655
77	0xbca87a5a	-0.020566154
78	0x3bab9678	0.005236443
79	0xbcb21340	-0.021737695
80	0xbc98a6d5	-0.01863424
81	0xbbc940f8	-0.006141778
82	0xbbb992b8	-0.005663242
83	0xbb2964f0	-0.0025847517
84	0xbc264980	-0.01014936
85	0x3bd42f50	0.0064753667
86	0x3be15100	0.006876111
87	0x3c313e48	0.010818072
88	0x3cc7835e	0.024354633
89	0x3bef8b30	0.0073102936
90	0x3c83ee7a	0.016104925
91	0x3caaa4ea	0.02083059
92	0xbd011f13	-0.031523775
93	0x3cb93978	0.022610411
94	0xbbe14e54	-0.0068757925
95	0x3ce29952	0.027661
96	0x3cef8476	0.029237967
97	0xbcc6f21a	-0.024285365
98	0xbc2a7266	-0.010403251
99	0xbbd177e4	-0.006392466
100	0xbc1f0d4a	-0.009707758
101	0x3ce08b1e	0.027410086
102	0x3cb0326e	0.021508422
103	0xbc0d7e0e	-0.008636011
104	0x3cfb2b52	0.030660305
105	0xbcc8b1f3	-0.024498915
106	0x3d0c0fff	0.034194943
107	0x3c336120	0.010948449
108	0x3c8bd2e8	0.017068341
109	0xbc32b018	-0.010906242
110	0xb7b0c800	-2.1073967e-05
111	0xbcb3fae0	-0.021970212
112	0xbcfbf838	-0.030758008
113	0x39e61000	0.0004388094
114	0x3c1429b8	0.00904315
115	0xbbff8f88	-0.0077990927
116	0xbcf8fe78	-0.030394778
117	0xbc95b7b0	-0.018276066
118	0xbc8c7eac	-0.017150246
119	0xbcb1e980	-0.021717787
120	0x3bf622c0	0.0075114667
121	0xbbd7fde4	-0.0065915454
122	0x3d04bf0f	0.03240877
123	0x3b183690	0.002322588
124	0xbc8668c7	-0.016407384
125	0x3d0d81cf	0.034547623
126	0x3cb46f9c	0.022025876
127	0x3ccd59b6	0.025067192
128	0x3c9c015a	0.019043613
129	0x3ca6a2ea	0.020341355
130	0x3cc25b9e	0.023725327
131	0xbc0044f8	-0.007828943
132	0xbc7fc360	-0.015610546
133	0x3b218d60	0.0024650916
134	0xbcf29e88	-0.02961661
135	0x3bfb7910	0.007674344
136	0xbc24227c	-0.010017987
137	0xbc8078ce	-0.015682604
138	0x3d011f09	0.031523738
139	0x3d0951e9	0.03352538
140	0xbcdfa433	-0.027299976
141	0x3c41a848	0.0118199065
142	0x3c843d34	0.016142465
143	0xbd0a9014	-0.03382881
144	0xbc72d9c6	-0.014822429
145	0xbcd46065	-0.02592487
146	0xbd09dba6	-0.03365674
147	0x3c8639ee	0.016385045
148	0xbc814460	-0.015779674
149	0xbd11f650	-0.035635293
150	0x3b8041b0	0.0039140806
151	0xbca4d4ca	-0.020120997
152	0x3beb5938	0.0071822666
153	0x3c64ba64	0.013960455
154	0x3ccc9afc	0.024976246
155	0xbcae342e	-0.021265116
156	0xbc119758	-0.008886181
157	0xbb88ce68	-0.004174996
158	0x3c6edb34	0.014578629
159	0x3c485e48	0.01222951
160	0x3c5c9d60	0.0134652555
161	0xbc40b03c	-0.011760768
162	0xbcdceeda	-0.026969362
163	0x3bf431b0	0.0074522123
164	0xbcbcfff0	-0.02307126
165	0x3cf91c62	0.030409042
166	0x3cdc9e22	0.026930872
167	0x3c87d83a	0.016582597
168	0xbca2aaa7	-0.019856764
169	0x3cc44fa6	0.02396376
170	0x3d08b03b	0.03337119
171	0x3ce7f49e	0.028314885
172	0x3cb03f22	0.02151448
173	0xbc09f06a	-0.008419136
174	0xbccddad8	-0.025128767
175	0x3cd0a60a	0.025469799
176	0x3cc290fa	0.02375077
177	0xbca3bf8a	-0.019988794
178	0x3c157b50	0.009123638
179	0x3cd1b726	0.025600027
180	0x3a9fc400	0.001218915
181	0xbc3c9aca	-0.011511514
182	0x3cd91b5c	0.026502304
183	0xbd0b5093	-0.03401239
184	0x3c6a8804	0.014314655
185	0x3c975818	0.018474624
186	0x3d112cc3	0.03544308
187	0x3b83b2d0	0.004019119
188	0x3d06fa1b	0.032953363
189	0xbc983955	-0.018582026
190	0xbca7825c	-0.020447902
191	0xbd00d228	-0.03145042
192	0xbc65fe46	-0.014037674
193	0x3cba4aec	0.022740804
194	0x3cd42a8e	0.025899198
195	0x3c8459a4	0.016156025
196	0x3c79af58	0.015239559
197	0x3c9c1cca	0.019056696
198	0xbcf29e71	-0.029616566
199	0x3bd7ade0	0.006582007
200	0x3c5ecc7c	0.013598558
201	0xbcb77e4e	-0.022399094
202	0xbb839ff8	-0.0040168725
203	0xbcfa59a5	-0.030560324
204	0xbc993857	-0.018703623
205	0xbc44546e	-0.01198302
206	0xb7f53800	-2.9232353e-05
207	0x3c3756dc	0.0111901425
208	0xbc968f8a	-0.018378992
209	0xbcd75d9a	-0.02628975
210	0xbc7b662e	-0.015344186
211	0xbd10c4aa	-0.035343803
212	0xbd07f0b3	-0.033188533
213	0xbb753d10	-0.003742043
214	0x3b8ccf98	0.004297208
215	0x3c905028	0.017616346
216	0xbcbae10c	-0.022812389
217	0xbc9ffda3	-0.019530123
218	0x3c65f1d8	0.014034711
219	0xbd0acb77	-0.033885445
220	0xbceffb11	-0.029294522
221	0x3c675b88	0.014120944
222	0x39d8e800	0.00041371584
223	0xbccd8f90	-0.02509287
224	0xbc91377e	-0.017726656
225	0xbc95a85e	-0.01826876
226	0xbceeb26c	-0.029137813
227	0x3c726624	0.01479486
228	0xbbda1d40	-0.006656319
229	0x3c306ae4	0.010767672
230	0xbcfd37f5	-0.030910471
231	0xbcb38a03	-0.021916395
232	0x39c09280	0.00036730245
233	0xbb118fd0	-0.0022210963
234	0xbbd50ca4	-0.006501751
235	0x3cda53ce	0.02665129
236	0xbb54cfb0	-0.0032472424
237	0xbc96419a	-0.018341828
238	0x3c20d264	0.009815786
239	0xbcf2d173	-0.029640889
240	0x3c80a310	0.015702754
241	0x3c3e6688	0.011621125
242	0xbcbce9ee	-0.023060765
243	0x3c98b78e	0.018642213
244	0xbc3410fc	-0.0109903775
245	0x3b9600b8	0.0045777224
246	0xbc23fb66	-0.0100086685
247	0x3cb3adde	0.021933492
248	0xbcb48d0a	-0.022039909
249	0x3d0413f1	0.03224558
250	0xbd0a542d	-0.033771683
251	0xbc70dc66	-0.014700985
252	0x3c8c63d8	0.017137453
253	0x3d03c77d	0.03217267
254	0x3cfcde6a	0.030867774
255	0x3c139bd8	0.009009324

fc2.weight f4 [10, 20]
0	0x3e4d2270	0.20032668
1	0x3e4f17d6	0.20223936
2	0xbd9c751e	-0.07639526
3	0x3e188b08	0.14896786
4	0x3dd170d4	0.102265984
5	0xbdc59b5c	-0.09648773
6	0xba985f00	-0.0011624992
7	0xbe46a47f	-0.19398688
8	0x3daf9d30	0.08574903
9	0xbd8a297a	-0.06746192
10	0x3e63b3be	0.22236535
11	0x3e078f7c	0.13238329
12	0x3e41e75a	0.1893591
13	0xbd9457a6	-0.0724328
14	0x3df80264	0.12109831
15	0xbd3ec3e4	-0.046573535
16	0xbdec1ccd	-0.11528931
17	0x3e5d9ddc	0.2164225
18	0xbdc4a280	-0.09601307
19	0xbe6267c3	-0.22109894
20	0x3cfec360	0.031099021
21	0xbe05876a	-0.13039938
22	0xbd446058	-0.047943443
23	0xbdace5bc	-0.08442256
24	0xbe3ddd69	-0.18541493
25	0x3e203968	0.15646899
26	0x3e408302	0.18799976
27	0x3d200d80	0.039075375
28	0xbe102f72	-0.14080599
29	0xbe2797c7	-0.16366492
30	0x3e1b1bb0	0.1514728
31	0xbd9744d6	-0.07386176
32	0xbca49ef0	-0.020095319
33	0x3d8ceca0	0.0688107
34	0xbe3eb681	-0.18624307
35	0x3e5c92c0	0.21540356
36	0xbd8174a4	-0.063210756
37	0x3d7aa410	0.06119162
38	0x3d460540	0.04834485
39	0xbd65f8ac	-0.056145355
40	0xbd972072	-0.07379235
41	0xbe3dfbe9	-0.18553127
42	0xbcd3c7f0	-0.025852174
43	0x3c4cec10	0.012507454
44	0xbdbcfe0e	-0.092281446
45	0xbe02f2aa	-0.12787881
46	0xbe4b0909	-0.19827665
47	0x3e58cd24	0.21172005
48	0x3c904898	0.01761274
49	0xbe10d80c	-0.14144915
50	0x3e5aed46	0.21379575
51	0x3ce4bc10	0.027921706
52	0xbe282737	-0.1642121
53	0xbde0b141	-0.109713085
54	0x3d682f40	0.056685686
55	0x3dde7134	0.108614355
56	0xbd2627b8	-0.040565223
57	0x3e232722	0.15932897
58	0x3dca5d98	0.09881133
59	0x3cd94830	0.02652368
60	0x3de23fe4	0.110473424
61	0x3d96491c	0.07338163
62	0x3e3b094c	0.18265265
63	0xbe1c38c2	-0.15256026
64	0x3d841e54	0.06451097
65	0x3e01a348	0.12659943
66	0xbdeba40e	-0.115059
67	0xbe43dd7a	-0.19127455
68	0xbd7fbb68	-0.062434584
69	0xbe3aefa8	-0.18255484
70	0xbda2de5a	-0.079525664
71	0x3df5a5d0	0.11994517
72	0xbd199fd4	-0.03750594
73	0xbdf1772d	-0.11790309
74	0x3e1ba7b0	0.15200686
75	0xbb1ae080	-0.0023632348
76	0xbe4a9522	-0.19783452
77	0x3db7cfd8	0.0897519
78	0x3e06bea2	0.13158658
79	0x3e0f17cc	0.13973922
80	0xbe2ed75a	-0.17074338
81	0x3c19be60	0.009383768
82	0x3e54fd36	0.20799717
83	0x3dbcc95c	0.09218094
84	0xbd05aee8	-0.032637507
85	0xbe4ab1b1	-0.19794346
86	0xbbfe9680	-0.007769406
87	0xbe4f8912	-0.20267132
88	0x3e374a66	0.17899475
89	0xbd90b082	-0.07064916
90	0xbe424593	-0.18971853
91	0xbba1df40	-0.0049399436
92	0x3e12f3f4	0.14350873
93	0x3e4e1f28	0.20129073
94	0xbd62a520	-0.055333257
95	0x3e4df394	0.20112449
96	0xbe6018ec	-0.21884507
97	0x3d3b9798	0.045798868
98	0xbcf359c0	-0.029705882
99	0xbda75e9a	-0.08172341
100	0xbdb8aeea	-0.09017737
101	0xbd2df728	-0.042472035
102	0xbe382deb	-0.17986266
103	0x3e04f54a	0.12984195
104	0xbd282cdc	-0.041058406
105	0x3dda6e2c	0.10665545
106	0x3db46e14	0.08810058
107	0x3b6681c0	0.0035172552
108	0xbd63e500	-0.055638313
109	0x3ccdcb38	0.025121316
110	0xbd4fd6ec	-0.050742075
111	0x3e5c671e	0.21523711
112	0x3e5a64b0	0.21327472
113	0xbdb2be3c	-0.087276906
114	0xbe3824f2	-0.17982844
115	0x3d773210	0.060350478
116	0x3caf8998	0.021427915
117	0x3e64954c	0.22322577
118	0x3d8ce3e4	0.06879404
119	0xbd9de7f6	-0.07710259
120	0x3d611718	0.054953665
121	0x3d7e8248	0.062135965
122	0x3d4db810	0.050224364
123	0x3e42f044	0.19036967
124	0xbcc10380	-0.02356124
125	0xbc13c4d0	-0.009019092
126	0xbca1fbf0	-0.019773453
127	0x3e338896	0.17532572
128	0x3c296a00	0.010340214
129	0x3d35bc28	0.044368893
130	0x3e1bad68	0.15202868
131	0x3c59b2a0	0.013287216
132	0x3e401f28	0.18761885
133	0xbe0abe03	-0.13549046
134	0x3d939e94	0.07207981
135	0x3df8f618	0.12156314
136	0xbe1c4773	-0.1526163
137	0xbcb0f680	-0.021601915
138	0xbe22b4b1	-0.15889241
139	0xbde0da38	-0.10979122
140	0x3d4efc88	0.0505338
141	0x3d96cbb0	0.07363069
142	0xbd724a8c	-0.059153125
143	0x3e4c2698	0.19936597
144	0x3df85fc4	0.12127641
145	0xbe61c496	-0.22047648
146	0xbdb2089c	-0.08693048
147	0xbdd98800	-0.10621643
148	0x3db3cbf8	0.08779138
149	0x3e1fc0ac	0.15600842
150	0xbe214da8	-0.1575228
151	0xbdda0b17	-0.106466465
152	0xbe44f84c	-0.19235343
153	0x3d6a0c08	0.05714038
154	0xbe2cd9fd	-0.16880031
155	0x3e30d930	0.1727035
156	0x3d633bb0	0.055476844
157	0x3cc43440	0.023950696
158	0xbdc3eb42	-0.09566356
159	0xbe5dbc2e	-0.21653816
160	0x3d712978	0.05887744
161	0x3d7e4f00	0.06208706
162	0x3dc2e198	0.09515685
163	0x3ce8c940	0.028416276
164	0xbe504921	-0.20340396
165	0x3bda0640	0.006653577
166	0x3d1de808	0.03855136
167	0xbd8e921c	-0.06961462
168	0x3e3f598c	0.18686503
169	0xbe233a26	-0.1594015
170	0xbe1003b2	-0.1406391
171	0x3e5b3090	0.21405244
172	0x3dcaf8d0	0.099107385
173	0x3e1af194	0.15131217
174	0xbe048348	-0.12940705
175	0x3d9aad40	0.07552576
176	0xbd2b4594	-0.0418144
177	0x3e1c206e	0.15246746
178	0xbce09b08	-0.027417675
179	0x3e54ca44	0.20780283
180	0xbe188f9a	-0.1489853
181	0xbd3a400c	-0.045471236
182	0xbd125068	-0.035721213
183	0xbe2af7e8	-0.16696131
184	0xbe3f9517	-0.18709217
185	0x3cd04ec0	0.025428176
186	0xbe1e1262	-0.154367
187	0x3d8c4fd4	0.068511635
188	0xbdfdca3d	-0.123920895
189	0x3dd354f8	0.10318941
190	0x3ddbf40c	0.107399076
191	0x3e5b7d4a	0.21434513
192	0x3d7125a8	0.058873802
193	0xbe3c4a36	-0.18387684
194	0xbd9ad814	-0.07560745
195	0xbcc0ceb0	-0.023536056
196	0xbdd2a698	-0.102856815
197	0x3e21ef40	0.15813923
198	0xbdcc5fcc	-0.09979209
199	0x3e17f0b6	0.14837918

fc3.weight f4 [10, 10]
0	0xbdcc2aa8	-0.099690735
1	0x3e811d6b	0.25217757
2	0x3e8b30a7	0.27185556
3	0x3e621242	0.22077277
4	0xbd9f975c	-0.077925414
5	0xbd96da64	-0.073658735
6	0xbdac4dbe	-0.08413266
7	0x3e71ff1e	0.23632476
8	0xbdfbbade	-0.122915015
9	0x3e75b71a	0.23995629
10	0xbdcc6580	-0.09980297
11	0x3e10d848	0.14145005
12	0x3d528888	0.051399738
13	0x3e30fe26	0.1728445
14	0x3ce2ac30	0.027669996
15	0x3e9950eb	0.29944548
16	0xbdb2dac6	-0.08733134
17	0x3d9aa61c	0.07551214
18	0xbe7accd7	-0.24492203
19	0xbdb365ae	-0.08759628
20	0x3e99ebe1	0.30062774
21	0xbcad48d0	-0.021152884
22	0xbe884158	-0.26612353
23	0xbcc8b7e0	-0.024501741
24	0xbde5b094	-0.1121532
25	0xbdde81c0	-0.108645916
26	0x3e825b8f	0.2546048
27	0x3e732daa	0.23747888
28	0xbd008f68	-0.031386763
29	0xbe48505a	-0.19561902
30	0xbdeff788	-0.11717135
31	0x3e76e2f2	0.2411001
32	0x3e5c351e	0.21504638
33	0xbd10e278	-0.035372227
34	0x3d0c58f0	0.034264505
35	0x3db70184	0.08935836
36	0x3e6e573e	0.23275468
37	0x3e9a300d	0.30114785
38	0xbd9989fc	-0.074970216
39	0x3e9a1be7	0.30099413
40	0x3e861c55	0.2619349
41	0x3ea1539f	0.3150911
42	0x3df07744	0.11741498
43	0xbe3f4540	-0.1867876
44	0x3e3c9b52	0.18418625
45	0x3da8274c	0.0821062
46	0xbe02c0ca	-0.12768856
47	0xbe690333	-0.22755127
48	0x3e42d682	0.1902714
49	0x3d824c58	0.06362218
50	0x3e9887a3	0.29790983
51	0x3ea07bef	0.31344554
52	0x3e73d28e	0.23810789
53	0xbe113b19	-0.141827
54	0xbe7ab474	-0.244829
55	0xbe80ddbe	-0.25169176
56	0xbd928d2a	-0.07155831
57	0x3e73ac96	0.23796305
58	0x3e9d85a3	0.3076602
59	0x3df9ea50	0.12202895
60	0xbdfb8d9c	-0.12282869
61	0x3e90e14b	0.28296885
62	0xbe5f89d5	-0.21829922
63	0x3e87497d	0.26423255
64	0x3d999e8c	0.075009435
65	0x3e5e273a	0.21694651
66	0xbe7237d2	-0.23654106
67	0x3e60cbe2	0.21952775
68	0x3e2b1c18	0.16709936
69	0xbd8b82f6	-0.06812088
70	0x3e70e2a2	0.23523954
71	0xbe53d54e	-0.20686838
72	0xbdbeb3f0	-0.09311664
73	0x3e858c45	0.2608358
74	0xbdd56926	-0.10420446
75	0xbe7c08be	-0.2461271
76	0x3c24eaa0	0.010065705
77	0x3e51e46a	0.2049729
78	0x3e6f4926	0.23367748
79	0x3c738bc0	0.014864862
80	0x3d9d902c	0.07693514
81	0xbdf9d34e	-0.12198506
82	0xbdc1bc82	-0.09459783
83	0x3e1aec30	0.15129161
84	0x3e10cf1e	0.14141509
85	0x3d8ec1ac	0.06970534
86	0x3e8e36f9	0.27776316
87	0xbe9f30b6	-0.3109185
88	0xbe40728e	-0.18793699
89	0x3e0d9002	0.13824466
90	0xbe650a42	-0.22367194
91	0xbda09980	-0.07841778
92	0x3e0fd946	0.14047727
93	0x3dd9834c	0.10620746
94	0xbe1d806c	-0.1538102
95	0x3e0d4ffe	0.13800046
96	0x3e44e986	0.19229707
97	0xbe5e61e6	-0.21717033
98	0x3d4d1160	0.0500654
99	0xbd74efe8	-0.059799105
